…
totalMemory: 11.92GiB freeMemory: 11.85GiB
2018-12-14 11:27:44.200881: I tensorflow/core/common_runtime/gpu/gpu_device.cc:1195] Creating TensorFlow device (/device:GPU:0) -> (device: 0, name: Tesla K80, pci bus id: 0000:88:00.0, compute capability: 3.7)
Loading data... done
Building model... 
__________________________________________________________________________________________________
Layer (type)                    Output Shape         Param #     Connected to                     
==================================================================================================
input_1 (InputLayer)            (None, 256, 256, 3)  0                                            
__________________________________________________________________________________________________
lambda_1 (Lambda)               (None, 256, 256, 3)  0           input_1[0][0]                    
__________________________________________________________________________________________________
conv2d_1 (Conv2D)               (None, 256, 256, 16) 448         lambda_1[0][0]                   
__________________________________________________________________________________________________
dropout_1 (Dropout)             (None, 256, 256, 16) 0           conv2d_1[0][0]                   
__________________________________________________________________________________________________
conv2d_2 (Conv2D)               (None, 256, 256, 16) 2320        dropout_1[0][0]                  
__________________________________________________________________________________________________
max_pooling2d_1 (MaxPooling2D)  (None, 128, 128, 16) 0           conv2d_2[0][0]                   
__________________________________________________________________________________________________
conv2d_3 (Conv2D)               (None, 128, 128, 32) 4640        max_pooling2d_1[0][0]            
__________________________________________________________________________________________________
dropout_2 (Dropout)             (None, 128, 128, 32) 0           conv2d_3[0][0]                   
__________________________________________________________________________________________________
conv2d_4 (Conv2D)               (None, 128, 128, 32) 9248        dropout_2[0][0]                  
__________________________________________________________________________________________________
max_pooling2d_2 (MaxPooling2D)  (None, 64, 64, 32)   0           conv2d_4[0][0]                   
__________________________________________________________________________________________________
conv2d_5 (Conv2D)               (None, 64, 64, 64)   18496       max_pooling2d_2[0][0]            
__________________________________________________________________________________________________
dropout_3 (Dropout)             (None, 64, 64, 64)   0           conv2d_5[0][0]                   
__________________________________________________________________________________________________
conv2d_6 (Conv2D)               (None, 64, 64, 64)   36928       dropout_3[0][0]                  
__________________________________________________________________________________________________
max_pooling2d_3 (MaxPooling2D)  (None, 32, 32, 64)   0           conv2d_6[0][0]                   
__________________________________________________________________________________________________
conv2d_7 (Conv2D)               (None, 32, 32, 128)  73856       max_pooling2d_3[0][0]            
__________________________________________________________________________________________________
dropout_4 (Dropout)             (None, 32, 32, 128)  0           conv2d_7[0][0]                   
__________________________________________________________________________________________________
conv2d_8 (Conv2D)               (None, 32, 32, 128)  147584      dropout_4[0][0]                  
__________________________________________________________________________________________________
max_pooling2d_4 (MaxPooling2D)  (None, 16, 16, 128)  0           conv2d_8[0][0]                   
__________________________________________________________________________________________________
conv2d_9 (Conv2D)               (None, 16, 16, 256)  295168      max_pooling2d_4[0][0]            
__________________________________________________________________________________________________
dropout_5 (Dropout)             (None, 16, 16, 256)  0           conv2d_9[0][0]                   
__________________________________________________________________________________________________
conv2d_10 (Conv2D)              (None, 16, 16, 256)  590080      dropout_5[0][0]                  
__________________________________________________________________________________________________
conv2d_transpose_1 (Conv2DTrans (None, 32, 32, 128)  131200      conv2d_10[0][0]                  
__________________________________________________________________________________________________
concatenate_1 (Concatenate)     (None, 32, 32, 256)  0           conv2d_transpose_1[0][0]         
                                                                 conv2d_8[0][0]                   
__________________________________________________________________________________________________
conv2d_11 (Conv2D)              (None, 32, 32, 128)  295040      concatenate_1[0][0]              
__________________________________________________________________________________________________
dropout_6 (Dropout)             (None, 32, 32, 128)  0           conv2d_11[0][0]                  
__________________________________________________________________________________________________
conv2d_12 (Conv2D)              (None, 32, 32, 128)  147584      dropout_6[0][0]                  
__________________________________________________________________________________________________
conv2d_transpose_2 (Conv2DTrans (None, 64, 64, 64)   32832       conv2d_12[0][0]                  
__________________________________________________________________________________________________
concatenate_2 (Concatenate)     (None, 64, 64, 128)  0           conv2d_transpose_2[0][0]         
                                                                 conv2d_6[0][0]                   
__________________________________________________________________________________________________
conv2d_13 (Conv2D)              (None, 64, 64, 64)   73792       concatenate_2[0][0]              
__________________________________________________________________________________________________
dropout_7 (Dropout)             (None, 64, 64, 64)   0           conv2d_13[0][0]                  
__________________________________________________________________________________________________
conv2d_14 (Conv2D)              (None, 64, 64, 64)   36928       dropout_7[0][0]                  
__________________________________________________________________________________________________
conv2d_transpose_3 (Conv2DTrans (None, 128, 128, 32) 8224        conv2d_14[0][0]                  
__________________________________________________________________________________________________
concatenate_3 (Concatenate)     (None, 128, 128, 64) 0           conv2d_transpose_3[0][0]         
                                                                 conv2d_4[0][0]                   
__________________________________________________________________________________________________
conv2d_15 (Conv2D)              (None, 128, 128, 32) 18464       concatenate_3[0][0]              
__________________________________________________________________________________________________
dropout_8 (Dropout)             (None, 128, 128, 32) 0           conv2d_15[0][0]                  
__________________________________________________________________________________________________
conv2d_16 (Conv2D)              (None, 128, 128, 32) 9248        dropout_8[0][0]                  
__________________________________________________________________________________________________
conv2d_transpose_4 (Conv2DTrans (None, 256, 256, 16) 2064        conv2d_16[0][0]                  
__________________________________________________________________________________________________
concatenate_4 (Concatenate)     (None, 256, 256, 32) 0           conv2d_transpose_4[0][0]         
                                                                 conv2d_2[0][0]                   
__________________________________________________________________________________________________
conv2d_17 (Conv2D)              (None, 256, 256, 16) 4624        concatenate_4[0][0]              
__________________________________________________________________________________________________
dropout_9 (Dropout)             (None, 256, 256, 16) 0           conv2d_17[0][0]                  
__________________________________________________________________________________________________
conv2d_18 (Conv2D)              (None, 256, 256, 16) 2320        dropout_9[0][0]                  
__________________________________________________________________________________________________
conv2d_19 (Conv2D)              (None, 256, 256, 1)  17          conv2d_18[0][0]                  
==================================================================================================
Total params: 1,941,105
Trainable params: 1,941,105
Non-trainable params: 0
__________________________________________________________________________________________________
Training model... 
Train on 536 samples, validate on 134 samples
Epoch 1/200

Epoch 00001: val_dice_coef improved from -inf to 0.50389, saving model to /mnt/results/nuclei-result/_wml_checkpoints/model-01-0.5038930.h5
…
